examples/Baselines/Halite_competition/torch/model/latest_ship_model.pth (torch, 346147 bytes, 81 tensors)

l1.weight f4 [16, 6]
000000 dd a7 90 be 9d 7f 25 be 97 b9 d5 be 47 64 a2 3d
       -0.2825307 -0.16161962 -0.41743156 0.07929283
000010 b1 1a 90 be a9 12 92 3d 62 08 80 3d fa 53 4a bd
       -0.28145364 0.071324654 0.06251599 -0.049396493
000020 5e d8 fb be 09 4a 62 3f bf b5 8a 40 3b d2 b4 3f
       -0.49188513 0.8839422 4.334686 1.4126657
000030 51 33 d1 be 0a 63 5f be 5e fa a2 3e e5 6a 9d be
       -0.40859464 -0.21815124 0.3183164 -0.30745617
000040 5d 1b 0c 3d 1f fd d3 be 37 b8 ae 3e 8b c2 fe be
       0.034205783 -0.41404054 0.3412492 -0.497578
000050 8c 07 87 bd 2a 2c fe bd be 18 80 bd 8d 50 6a 40
       -0.06593236 -0.124107674 -0.06254719 3.6611664
000060 7f eb a1 be 92 81 27 bd ab db 41 bd 13 2e 97 3e
       -0.31624982 -0.040895052 -0.047328632 0.2952734
000070 88 be 9e bd a7 4a 12 bf ca ac 3a 3e b6 9b 34 be
       -0.07751185 -0.5714516 0.18229976 -0.17637524
000080 32 64 b8 be ef 81 15 bf 8b dc 94 bd 93 79 04 40
       -0.36013943 -0.5840139 -0.07268628 2.0699203
000090 6c 4c 6b be f3 a5 1d be 0d 3b 80 bc d8 fd 81 bf
       -0.22978371 -0.15395336 -0.015653158 -1.0155592
0000a0 dc e7 1c 3e 3c 57 17 3e 60 30 b2 3e 2c 23 6a bf
       0.15322822 0.14779371 0.34802532 -0.9145992
0000b0 88 56 b9 be 88 4b f5 be e2 ed a8 bd 72 a3 04 c0
       -0.3619883 -0.47909188 -0.082484975 -2.072476
0000c0 65 1e 2a 3e cd bf fd be 48 bb 12 bc a6 c0 2a bf
       0.16613157 -0.49560395 -0.008955784 -0.6670021
0000d0 f5 50 ef 3f 3c 29 26 c0 00 fe 8e 3e 7f 83 43 3d
       1.8696581 -2.5962667 0.27928162 0.047732826
0000e0 26 ce b0 bf d7 0b 0c c0 74 55 cd bf 5e 7a 0c 40
       -1.3812912 -2.1882226 -1.6041703 2.1949687
0000f0 e5 eb 3d 3e 3b bf 7f be 2b ca 1b 3f f0 ef 0a bf
       0.18547018 -0.24975292 0.6085536 -0.54272366
000100 66 75 cf 3f 2d 5e cd bf 49 03 ce bd 83 34 94 3b
       1.6207702 -1.6044365 -0.1005922 0.0045228614
000110 81 8f 30 bf dd 8a 01 be 81 94 a2 3e aa 1a 77 bf
       -0.6896897 -0.12650628 0.31753924 -0.9652506
000120 14 ea 68 3e d6 98 a1 be 05 60 ec 3f 74 49 57 3f
       0.22745544 -0.31561917 1.8466803 0.84096456
000130 d8 07 3b c1 77 10 03 bf ae 9f 89 be bb 89 8b 3e
       -11.689415 -0.51197 -0.26879638 0.27253518
000140 85 7c 49 be ea 61 d9 be 80 a7 71 bc 69 82 94 40
       -0.19676407 -0.42457515 -0.014749408 4.640919
000150 9b 85 c9 3e e6 bf 04 bf 04 64 96 3f fb f7 50 3f
       0.39359745 -0.51855314 1.1749272 0.8162839
000160 1b c9 b5 bf 22 40 94 bc ab 6a f2 3d 6d 6f d3 be
       -1.4201998 -0.018096987 0.118367516 -0.4129595
000170 f8 64 06 3f 49 e5 d7 3e 64 03 31 bf 08 2b ee bc
       0.52497816 0.42167118 -0.691458 -0.029073253

l1.bias f4 [16]
000000 38 46 53 be 2c 30 16 c0 a0 b8 c0 be f5 18 70 bf
       -0.20632255 -2.3466902 -0.37640858 -0.9378808
000010 52 fa 17 be 75 3d 26 c0 3f 7e fc be d2 44 2c 3e
       -0.14841583 -2.597501 -0.49315068 0.16823128
000020 85 af e6 bf 27 6e 25 c0 95 74 a1 3f 72 f7 d3 be
       -1.8022314 -2.5848482 1.2613703 -0.41399723
000030 33 05 56 40 92 f8 89 c0 b6 82 a7 40 29 b8 31 3f
       3.3440673 -4.311593 5.234706 0.6942163

l2.weight f4 [24, 144]
000000 c2 45 64 3d f0 fa 2a bf 78 2b a0 3e 89 c3 a4 bf
       0.05573059 -0.6678915 0.31283164 -1.2872173
000010 7a 51 c0 be be 3b 63 bf e6 49 6c bf 27 5b 3a 3f
       -0.37562162 -0.88763034 -0.9230026 0.7279534
000020 a8 2a fe be 6e ce 00 40 3e f8 9a 3f 10 b3 e2 3f
       -0.4964192 2.0125995 1.2107008 1.7710896
000030 1b 29 cc 3e 96 22 5d bd fa bc fd 3e 7a 9f 87 3f
       0.3987511 -0.05398806 0.4955824 1.0595543
000040 b7 47 b1 3d 95 88 14 3f cc a5 0a bf fd 18 16 3e
       0.08656257 0.5802091 -0.54159236 0.1465797
000050 62 05 60 bf ac a0 ce 3e d9 38 09 bf c5 6d 99 bf
       -0.87508214 0.40356958 -0.5360237 -1.1986624
000060 a3 92 b9 bd 4c f2 35 bf 74 4e 20 be a2 2a 85 bf
       -0.09061172 -0.7107284 -0.15654927 -1.0403636
000070 dd 20 1a bf be 0a 08 bf df 90 9f bf 83 37 0a bf
       -0.60206395 -0.5314139 -1.2466086 -0.53990954
000080 27 b4 31 bf ca 9a d4 be 24 00 fc 3e 47 5c 86 be
       -0.69415516 -0.41524345 0.49218857 -0.26242277
000090 86 7a 9f 3f b1 7b d4 be f6 6f 37 be 3b 43 87 3f
       1.2459266 -0.4150062 -0.17913803 1.0567392
0000a0 a5 09 19 bf ff cf 83 be 24 8e 3c bf 77 56 1c bf
       -0.5978034 -0.25744626 -0.7365439 -0.61069435
0000b0 41 a3 32 3f 3f a8 6f 3f 09 a8 a1 3f 43 f0 73 bf
       0.69780356 0.936161 1.2629405 -0.95288485
0000c0 db 17 11 bf fe 49 c8 3e 1d f3 8d bf a5 88 cb 3e
       -0.56677026 0.39118952 -1.1089817 0.3975269
0000d0 99 e6 b6 3e 41 50 0d 3f c8 c6 3f bf c4 0d 34 be
       0.35722807 0.5520058 -0.7491269 -0.17583376
0000e0 7f 17 ef 3d f8 04 a6 be 54 3d 64 3f 1a e6 55 bc
       0.116744034 -0.32425666 0.8915608 -0.013055349
0000f0 5e 1e 06 bf 3b 64 87 bf 74 89 02 bf 3b b5 8c 3e
       -0.52390087 -1.0577463 -0.50990987 0.27482018
000100 3d 22 0e bf 03 58 bf be e6 40 ce be 8c e5 37 3f
       -0.55520993 -0.37371835 -0.4028389 0.71834636
000110 80 a8 ec bc 6e 70 47 3f d2 cc 99 bf 27 0f 78 bf
       -0.02888894 0.7790593 -1.2015631 -0.9689812
000120 27 94 93 3e 52 9c 3c 3f 48 86 4f 3f 97 2b 0f bf
       0.2882397 0.73676026 0.8106427 -0.5592589
000130 6d 69 aa bf fa 77 ef 3e a5 cb 82 bd 38 1c 31 3f
       -1.3313423 0.46771222 -0.06386498 0.69183683
000140 f9 90 3a bf 1d 03 f2 3e 9c dd 20 3f 7c 6a f0 3e
       -0.7287746 0.47268 0.6283815 0.4695624
000150 d3 0b 47 bf 0e 4e 5a 3f 23 35 b9 bf 4d d7 a6 bf
       -0.7775242 0.8527535 -1.4469341 -1.3034455
000160 29 d6 e9 3e 2c 5b 21 3f 1d 84 a6 3f fa 71 07 3f
       0.45671204 0.6302974 1.3009068 0.5290829
000170 f9 6c 7a 3f 86 f9 4a 3e 35 b2 d4 bf 23 a7 bd be
       0.9782253 0.19821748 -1.6616884 -0.37041578
000180 64 51 08 c0 a1 db 75 bd 8f 86 65 3d de 0d be bf
       -2.1299677 -0.060023908 0.05603653 -1.4847982
000190 2a 16 4c bf b4 0a ea be 34 15 59 3f fc 1a a1 bf
       -0.7972132 -0.4571129 0.8479798 -1.258636
0001a0 65 67 da be 20 66 2a 3f a7 56 ce bf 6d 7a 01 bf
       -0.4265701 0.6656208 -1.6120194 -0.5057743
0001b0 96 5c 1d bf 27 ea 12 3e b2 8a 52 bf 8b ef 79 bf
       -0.614694 0.14347135 -0.8224288 -0.9763114
0001c0 d6 c3 a8 be de 06 02 be 5a 18 60 be af 33 b3 3c
       -0.3296191 -0.12697932 -0.2188429 0.02187523
0001d0 37 d2 30 3f ac 8b eb be f3 ff 46 bf 07 80 c4 3e
       0.6907076 -0.46005 -0.777343 0.38378927
0001e0 75 74 a4 bf cd 65 11 bf fa 5d 0b bf c7 94 b1 be
       -1.284804 -0.5679596 -0.5444027 -0.3468382
0001f0 e7 f2 f4 be 96 43 b8 3e 47 8b 78 be 05 1d a1 bf
       -0.4784157 0.35989064 -0.2427188 -1.2586981
000200 8e 40 9b bf bf 64 83 bf c5 e8 82 be 4c 10 e2 3d
       -1.2129076 -1.026512 -0.25568214 0.11038265
000210 7d 2e 49 3f 20 b1 5f 3f 66 81 45 bf 0a d6 53 bf
       0.7858656 0.87379646 -0.7715057 -0.8274847
000220 9c 33 28 bf 96 8d 12 3f 1c fc 50 3f 57 10 6c 3e
       -0.6570375 0.57247293 0.8163469 0.23053108
000230 27 5c 9c 3f 9f ab 0c 3f 3c 4f df be dc 09 87 3f
       1.2215623 0.54949373 -0.4361514 1.0549884
000240 8a 48 61 3c ee 0f c3 3d f4 70 91 3d 97 cd fe 3c
       0.013750205 0.09524523 0.07101622 0.031103892
000250 f9 1a ab 3d f2 7d 83 3d 8b 02 85 be 70 a5 a6 bd
       0.08354754 0.064205065 -0.25978503 -0.081370234
000260 c2 b9 c3 3d 20 ad f9 be 73 f1 ea be 59 cd 51 be
       0.09556915 -0.48764896 -0.45887336 -0.2048849
000270 83 7e 87 be 17 f5 00 bf b4 c8 74 be 49 96 ed 3d
       -0.26463708 -0.5037398 -0.23904687 0.1160093
000280 a2 a0 ae be 78 52 ed be ff f5 e1 be c5 fe 92 be
       -0.34106928 -0.4635198 -0.44132993 -0.2871
000290 0e 3b 8c be 16 b5 2b be 65 82 03 bf 5c 7b 80 3c
       -0.27388805 -0.16768298 -0.5137084 0.015683822
0002a0 4a 6e 28 3d 27 fa a3 bc ea e9 df bd b4 05 44 3c
       0.041120805 -0.020016743 -0.109332874 0.01196425
0002b0 ab 0a b6 be c2 92 da bd b2 44 60 bd c5 61 2e be
       -0.35555014 -0.10672523 -0.054753013 -0.17029484
0002c0 07 7d c5 bd 00 05 4d be ec 9c 55 be 08 8c 4e 3d
       -0.09642988 -0.20021439 -0.20860642 0.050426513
0002d0 ae 4f a9 be 64 c1 a5 be d7 74 5b bd 21 4d 9b be
       -0.33068603 -0.32374108 -0.053578224 -0.30332282
0002e0 c0 8c bb be 2e 06 1e be d7 ae 9d bd b3 ee a3 be
       -0.3663082 -0.15432045 -0.07699364 -0.3201805
0002f0 0c 6d 50 be 5c 14 b8 bd a4 e2 91 be fa bd 12 be
       -0.20354098 -0.08988258 -0.28493226 -0.14330283
000300 10 91 33 be b9 5d 10 bd 51 19 05 bd e6 8d 91 bd
       -0.17535806 -0.03524563 -0.032494847 -0.07107143
000310 a9 51 8d bd 7c f7 3f be 89 97 ab be c4 5a 61 39
       -0.06900341 -0.18746752 -0.3351405 0.00021491485
000320 86 e0 86 bd b8 9c fb bc 2b 16 8f bd 76 c8 b0 3d
       -0.06585793 -0.030714378 -0.0698665 0.08631985
000330 06 00 2c 3e a8 05 4a bd 29 64 aa 3d 07 1c ac 3d
       0.16796884 -0.0493218 0.08319885 0.08403783
000340 d3 da d1 bd 2f 8c 23 bd ea be 6e be fb 45 5e 3b
       -0.102468155 -0.03992861 -0.23315015 0.0033916223
000350 11 a4 03 3d 69 c4 69 3e 60 b2 d8 3d 6a 63 bb bd
       0.032138888 0.22828831 0.10580897 -0.09149821
000360 9c 60 73 3c fb 4d ea bd 78 09 db bd ae 6f fa be
       0.014854576 -0.11440655 -0.106951654 -0.4891333
000370 3e 0b 8b bd 1b f2 0d be 7f 2f 08 be 5a 05 e0 3c
       -0.06789254 -0.13861887 -0.13299368 0.027346302
000380 b5 ef eb bd 49 38 aa bc bd 8f 1e be b7 df 4e bd
       -0.1152033 -0.020778792 -0.1548452 -0.05050632
000390 0b 2a 03 bf 94 98 10 be 69 57 e3 be 2d 44 dc bd
       -0.5123603 -0.14120704 -0.44402626 -0.10755191
0003a0 c7 44 7b bd 5c 87 8f be 3c b3 eb be 41 18 be be
       -0.061344888 -0.28032959 -0.46035182 -0.3712788
0003b0 9f 86 19 3c 5a be 7c bc a7 68 06 be b4 c6 ff bd
       0.009370475 -0.015426243 -0.13125859 -0.124890715
0003c0 2f 06 87 3d 46 87 2f 3c 3b 00 8c be 38 f4 16 bf
       0.06592976 0.010713404 -0.27343926 -0.589664
0003d0 d6 e3 c0 be 70 42 2b be 60 e8 a8 be fc 9d 41 bf
       -0.37673825 -0.16724563 -0.32989788 -0.7563169
0003e0 b3 4e 8d be 39 02 ed be 03 35 c3 be 77 2b 24 be
       -0.27599105 -0.46290758 -0.38126382 -0.16032206
0003f0 ea e5 42 3d 43 1b bf be e1 a5 ca be ea 44 db bd
       0.047582544 -0.37325487 -0.3957968 -0.10706504

l2.bias f4 [24]
000000 34 69 b1 be 7f a0 19 bf 13 fb 4e 3f 5c f4 2b bf
       -0.34650576 -0.6001052 0.8085186 -0.6716974
000010 7e 79 42 be 07 0b 81 be fc 3b b5 be 5c 8e 6f 3f
       -0.18991658 -0.25203726 -0.35397327 0.935766
000020 dc e0 93 3f 71 e8 84 40 a4 ee 41 3e cc 19 fb 3f
       1.1552997 4.153374 0.1893869 1.9617248
000030 9c d4 7a 3e 57 6d 43 be 18 8a 15 bf dd 98 be 3f
       0.24495167 -0.19084679 -0.5841384 1.48904
000040 be e3 8d be 04 5c b7 3f 4b c1 8d be a1 7c 91 3f
       -0.27712816 1.4324956 -0.27686533 1.1366159
000050 95 2d d0 bd e2 9e 3e bf 63 57 7e 3f 6f de 51 be
       -0.10164944 -0.74461186 0.9935209 -0.20495008

l3.weight f4 [128, 40]
000000 07 97 f3 bc 0e 4a f6 bd 64 b1 06 be de 57 49 be
       -0.029735101 -0.120258436 -0.13153607 -0.19662425
000010 49 08 06 3d 8b a3 95 bc c6 ef 08 be 6f 3c b4 be
       0.032722745 -0.01826646 -0.13372716 -0.35202357
000020 1c 08 78 bf 06 f4 00 bf b5 c9 84 3e 0b 96 4f be
       -0.96887374 -0.5037235 0.2593514 -0.2027208
000030 c5 71 0a bf 0f e5 df 3e 36 9d 6b 3c 55 43 1f 3f
       -0.5407985 0.43729445 0.014380744 0.62212116
000040 da 26 94 3e 03 12 06 bd 6f 82 69 bf 4b b6 55 be
       0.2893589 -0.03273202 -0.9121465 -0.2087032
000050 20 81 9c be 75 7c 8e be 37 41 7f be 6f d1 11 3e
       -0.30567265 -0.27829328 -0.24927221 0.14240049
000060 3c 36 0d bf e5 92 1c bf ff 5d ee bd 73 b1 7d 3f
       -0.5516088 -0.61161643 -0.11639022 0.9909889
000070 8b ab 0c be 4d 7a fc be 62 d8 ac bd 4e a7 1a 3d
       -0.13737313 -0.49312058 -0.08439709 0.03775721
000080 11 6c 08 bf 64 a9 cd 3d d3 48 20 3c 2f 62 96 be
       -0.53289896 0.10042074 0.009782988 -0.29371783
000090 83 40 d7 3e e8 58 7b bd 43 ab af 3e 6b 64 89 be
       0.42041406 -0.061364084 0.3431035 -0.26834425
0000a0 63 32 b7 3d 2b a1 ea be e9 1d c3 3d 13 bd 47 be
       0.089451574 -0.45826086 0.09527189 -0.1950572
0000b0 08 a9 f6 ba af 0a 52 bd 70 51 bd bb 0f c0 f4 3d
       -0.0018818686 -0.05127972 -0.0057775304 0.11950695
0000c0 bb 78 14 be e9 ad a8 be a3 f0 29 3d cc 13 b4 3c
       -0.1449918 -0.32945183 0.041489255 0.021982096
0000d0 fb 7e 2a be c2 47 92 bd 2f d8 cc bd 1f 81 bc bd
       -0.16650002 -0.07142593 -0.10002171 -0.092043154
0000e0 44 20 d7 bd 3a 8b d3 bd 5d f2 35 bc 48 27 22 be
       -0.10504201 -0.1032929 -0.011105147 -0.15835297
0000f0 c1 46 15 be 68 64 d2 bd d1 b7 5d bd f3 36 2a 3d
       -0.14577772 -0.10273057 -0.05413038 0.04155631
000100 8a 99 36 bd a9 e0 14 be bc 24 66 bd 1e d2 16 be
       -0.04458002 -0.14538826 -0.056187376 -0.14728591
000110 91 56 c2 bd 52 1f f8 bc 49 f7 7d bd fc ba 49 3d
       -0.094891675 -0.030288372 -0.062003408 0.049250588
000120 3e b8 81 bd 45 b0 83 be 15 98 c5 3d f6 c0 aa bd
       -0.063339695 -0.2572042 0.09648148 -0.08337586
000130 43 24 c7 3d 57 4a ca bc 87 89 8a bd d3 8b ea bd
       0.09723713 -0.024693651 -0.067645125 -0.114524506
000140 77 4d f4 3d 96 21 9d 3f 2c 75 d3 3d 00 f7 17 c0
       0.11928838 1.2275875 0.10325083 -2.3744507
000150 be 6b c0 3e 6b 5e 86 3c d7 67 30 be 5a e5 47 c0
       0.375822 0.016402444 -0.17227112 -3.1233735
000160 3c 43 b4 3f aa a3 a7 bf 83 3e 5d 3f 50 5e 91 be
       1.4083018 -1.3096821 0.8642351 -0.28392267
000170 12 62 10 bf e2 51 e0 bf 95 78 92 bf b1 ad b3 bf
       -0.56399643 -1.7524989 -1.1443049 -1.4037381
000180 03 96 dc bf ac f5 05 be 91 25 fb bd 8e 2d 09 bf
       -1.723328 -0.13081998 -0.122630246 -0.53585136
000190 f8 ea 97 bf 00 4b 0d bf 17 62 22 bd 25 c1 1e 3f
       -1.1868582 -0.55192566 -0.039644327 0.62013465
0001a0 7a 2c f7 be 7c 89 0b bf 96 46 44 bf d6 43 13 3e
       -0.4827612 -0.5450666 -0.76670206 0.14381346
0001b0 30 52 fd bf 63 60 76 be 59 d9 17 bf ed 9e 66 bf
       -1.9790707 -0.24060206 -0.5931602 -0.9008625
0001c0 87 d2 7b bf f3 a3 61 be 7d 03 6a bf 51 d8 87 3e
       -0.98368114 -0.22035198 -0.9141157 0.26532224
0001d0 f7 b0 39 bf 72 82 03 bf 53 e5 4d bf 26 f8 18 bf
       -0.7253565 -0.5137092 -0.80428046 -0.59753644
0001e0 7f d8 e5 bd 9a a0 45 bf d6 7d ca bd c8 da 0e 3e
       -0.11222934 -0.77198184 -0.098872826 0.13950646
0001f0 96 ea bb 3d fc cf 18 be 5e 92 66 be eb 7c 97 be
       0.09175603 -0.1492309 -0.22516772 -0.29587492
000200 43 96 2c 3f 16 13 31 bf 4b cb 8a 3e f8 82 a6 3d
       0.6741678 -0.6916975 0.27108225 0.08130449
000210 e1 ed b0 be d2 e4 bb 3e 4a 17 32 be c8 49 d0 3d
       -0.34556487 0.36698014 -0.17391697 0.10170323
000220 05 bc 5c bf 3c d6 87 bd 6f d5 56 bf cb 02 e2 be
       -0.86224395 -0.06632659 -0.83919424 -0.44142756
000230 4c 15 43 bf 7c 76 8a 3d ce f7 15 3e 7f 9e 94 3d
       -0.7620437 0.0676088 0.14645311 0.07256793
000240 02 7d e6 be 89 3f 24 bf a0 ee 09 3e 76 33 de bd
       -0.45017248 -0.64159447 0.13469934 -0.10849659
000250 ed 52 1e bf 23 53 4b be 48 0f 86 3e 28 4b 66 bf
       -0.61845285 -0.19855933 0.26183534 -0.8995843
000260 ba c5 72 3e 5c bc 85 bd c9 75 0d be 4b bf 2a 3d
       0.23708239 -0.06530067 -0.13814463 0.041686337
000270 a3 da c5 be c5 1a 24 bd 59 58 4d bf 8f dc 1a be
       -0.3864337 -0.040064592 -0.8021293 -0.15123199
000280 25 ef 95 3d c0 ec f7 bd b4 5f 10 bf 3a 2c 02 bf
       0.07321004 -0.12105703 -0.5639603 -0.50848734
000290 87 cd 62 bd 46 3c 8b be a6 d9 ad 3e e5 f5 db be
       -0.055371787 -0.27194422 0.33955115 -0.4296104
0002a0 c8 5c 29 bf 84 5a b2 be cd ee c1 be c7 1f 79 bf
       -0.661572 -0.34834683 -0.37877503 -0.97314113
0002b0 2f 34 4b bd f9 53 1b bf 62 79 1e bf ab 6a 94 bf
       -0.049610313 -0.6067501 -0.61903965 -1.1595052
0002c0 9b 78 9e be bf 6f 1b be 1b cc 0c bf 0a 2e 96 be
       -0.3095139 -0.15179347 -0.5499894 -0.29332
0002d0 60 2d 13 bf 66 d6 11 bf fa 6b 84 bd 75 3c 32 bf
       -0.5749111 -0.5696777 -0.064659074 -0.696235
0002e0 38 96 22 be 1b f3 f9 be 34 d9 ab be db 23 4b be
       -0.15877616 -0.48818287 -0.3356415 -0.19837897
0002f0 55 b4 a4 be 02 2e 61 bf d1 b8 1b bf cb 0f 56 3e
       -0.32168832 -0.8796083 -0.6082888 0.20904462
000300 8c df 69 bf 70 11 9a be 04 e0 15 3e 50 5c 03 bf
       -0.9135673 -0.3009143 0.14636236 -0.5131273
000310 1d f5 77 be 2d b1 ce be 17 20 7e 3e 63 46 37 bf
       -0.24214597 -0.4036955 0.24816929 -0.71591777
000320 75 16 6b bd d4 80 1f bf a8 33 41 3d 58 ad 51 be
       -0.057394464 -0.6230595 0.047168404 -0.20476282
000330 14 c5 48 be 45 c8 27 be ec 70 c8 be 13 3e 01 3d
       -0.1960643 -0.1638499 -0.39148653 0.03155334
000340 49 b9 93 be 20 21 14 bf 12 3d 34 bf 8a eb b4 be
       -0.288523 -0.57863045 -0.70405686 -0.35335952
000350 34 01 9a bd 43 93 eb bd 79 7d 08 be c5 bf c6 be
       -0.07519761 -0.11502697 -0.13329114 -0.38818184
000360 10 04 93 be 9f 1d 89 be 37 3e 1b bf c1 9d 0d bf
       -0.28714037 -0.26780412 -0.6064181 -0.5531884
000370 9c d4 2a 3d 65 14 6f bd 01 ef c8 be d6 bd 1b bf
       0.041706666 -0.05836906 -0.39244846 -0.6083654
000380 8c eb 8b be 28 b1 fd be 57 32 92 be 64 fd d6 bd
       -0.27328146 -0.49549222 -0.2855403 -0.10497549
000390 fd 60 ce 3e 9c ad 9e be ec 82 9c be b3 3d ab 3e
       0.4030837 -0.30991828 -0.30568635 0.3344551
0003a0 15 07 0d 3e 8f a6 a2 3d 30 2d 85 3e c6 0b 2f be
       0.13772233 0.07941925 0.26011038 -0.17094335
0003b0 7b b8 7e be 01 7a 69 be 20 4d 0e be 19 79 90 be
       -0.24875061 -0.22800447 -0.13896608 -0.2821739
0003c0 b8 f6 55 bd 46 f9 ac 3d a7 7a d2 3d b9 df f2 be
       -0.052237242 0.08445983 0.102773 -0.47436312
0003d0 3d ab be 3e 17 b2 74 be 4c 33 37 bd 39 eb 6b bf
       0.3724002 -0.23896061 -0.044726655 -0.92155796
0003e0 e6 33 74 3e 7b 6f 4f 3d be e3 66 bf b3 a3 37 be
       0.23847923 0.050643425 -0.90191257 -0.1793354
0003f0 c7 34 cc be 55 ca e2 bf 77 7f 3e c0 46 71 47 bf
       -0.39884016 -1.7717997 -2.9765298 -0.77907217

l3.bias f4 [128]
000000 b9 e4 1a bf 5b ee 3e be 36 b7 67 3f 5f 96 db be
       -0.60505253 -0.18645613 0.9051393 -0.42888162
000010 0c 47 f7 be ce da 0f bf 08 46 17 bf 7a 13 84 be
       -0.48296392 -0.56193244 -0.59091234 -0.2579611
000020 ad 16 e2 be 8a c3 57 be e0 75 a2 be a7 6c b8 bd
       -0.44157925 -0.21070686 -0.31730556 -0.09005099
000030 e5 2f 01 be d8 3e 79 be 8d 73 d2 be a6 9f 07 c0
       -0.12615927 -0.24340379 -0.41103783 -2.1191192
000040 74 f4 ac be 7d a7 b5 be 5b 55 0d bf 84 15 87 be
       -0.33780253 -0.35479346 -0.5520837 -0.26383603
000050 5a 28 e5 be 1c 63 82 be 3e 83 31 bf ec 7f 92 be
       -0.44757348 -0.2546624 -0.69340885 -0.28613222
000060 d3 e9 82 bf e6 c1 20 be 52 7f bc be f4 5e 42 be
       -1.0227607 -0.15698966 -0.36815888 -0.18981534
000070 e2 29 01 bf a4 1f af be a9 38 81 be 09 8f 12 bf
       -0.50454533 -0.34203827 -0.2523854 -0.57249504
000080 c0 3b fc be 5a 55 46 be ab b7 b7 be a8 f9 a3 be
       -0.49264336 -0.19368497 -0.35882315 -0.3202641
000090 33 32 0f c0 55 bb 5f bf 85 18 c8 be 0b 26 83 bf
       -2.237439 -0.8739522 -0.39081207 -1.0245985
0000a0 81 7c 55 be b4 a4 a5 be 45 36 b1 3f 23 ad 36 40
       -0.20848276 -0.3235222 1.3844687 2.8543174
0000b0 6f e0 fc be 3d 5f 81 c0 a5 79 cb bd 1f b5 0b bf
       -0.4938998 -4.042876 -0.09935311 -0.54573244
0000c0 5e 52 b7 be 1b 25 b0 bd 2e 69 ab be 74 0a 5f be
       -0.3580503 -0.08600827 -0.33478683 -0.21781331
0000d0 4d 26 55 3e 24 7c 4d 3d 42 f7 bd be ed f3 d1 bd
       0.20815392 0.050167218 -0.37102705 -0.10251603
0000e0 e4 f1 5c bf 3a 96 c6 be ee 8f 7a bf 85 91 e6 be
       -0.86306596 -0.3878649 -0.9787587 -0.45032898
0000f0 b7 49 06 c0 1b 32 51 bf f0 4c 24 bf 84 2d 4d bf
       -2.0982492 -0.8171708 -0.641799 -0.80147576
000100 2e 1a 57 bf 88 96 9a bd a3 f1 0a be d6 f1 9e be
       -0.8402432 -0.07548243 -0.1356874 -0.3104388
000110 5e dd 11 bf 4d 02 06 bf 6f db cf be 99 d2 20 c0
       -0.56978405 -0.5234726 -0.40597102 -2.5128539
000120 4b 0e 40 bf 20 9e 27 be 85 a0 a8 be a5 e2 8c be
       -0.7502181 -0.16368914 -0.32934967 -0.27516666
000130 75 e7 06 3f 3f 4e 44 bf 57 9d eb be af 4d eb be
       0.52696925 -0.76681894 -0.46018478 -0.45957705
000140 62 58 b0 be 73 ab f5 be 25 4e 14 3e 2f 7b a1 be
       -0.3444243 -0.47982368 0.14482935 -0.31539294
000150 90 bb 24 be 56 77 9c be be 21 dd be 64 6c ce bf
       -0.16087174 -0.30559796 -0.43189806 -1.6126828
000160 df 6a fe 3f 5d 10 f9 be a6 1b 0c bf e3 96 f9 bd
       1.9876364 -0.48645297 -0.5472969 -0.121869825
000170 c9 34 de be 00 e1 39 bf ad 81 2e 3e 4f 4c 21 bf
       -0.43399647 -0.7260895 0.17041655 -0.6300706
000180 a7 23 75 bf c6 c2 8e be a4 84 c2 be 3e da 8a be
       -0.95757526 -0.27882975 -0.37991822 -0.2711963
000190 fa 57 1c be b4 2e 6d bf d4 13 ae 3d c4 ca d0 be
       -0.15267935 -0.9264939 0.08499876 -0.40779698
0001a0 c6 5a 13 bf 53 2d cf be 3a 75 8f be 21 70 ad be
       -0.57560384 -0.40464267 -0.28019124 -0.3387461
0001b0 8f 06 46 bf 77 13 94 3e f0 fc 7c be 0e 07 6d bf
       -0.7735376 0.289211 -0.24705863 -0.9258889
0001c0 e3 dd c8 be ab 7a 80 bf 3b b2 03 3e b6 5e 10 bf
       -0.39231786 -1.0037435 0.12860958 -0.5639452
0001d0 2c 17 4b be 1c e2 77 be f6 ef a6 be f9 54 9a be
       -0.19833058 -0.24207348 -0.3260495 -0.30142954
0001e0 8b bb 2f bf 0e 70 dd bd 74 4b 55 bf 4a 4f c4 be
       -0.6864554 -0.10812388 -0.8331826 -0.38341743
0001f0 ce d6 14 bf a2 8e 6d c0 e7 13 23 be 9a 1b 89 bc
       -0.58140266 -3.7118306 -0.15925561 -0.016736794

l4.weight f4 [1, 128]
000000 7e ee 94 3c db b2 6f bc a2 fb 7d be b6 c5 12 3d
       0.018180128 -0.014630045 -0.24803022 0.035833083
000010 24 38 13 be 90 20 cc 3a df 7a 4f bd 97 c1 fb 3b
       -0.14376885 0.0015573669 -0.05065429 0.00768299
000020 64 20 48 3d 23 30 48 bb bb 83 6a 3c fe 90 f1 bd
       0.048859015 -0.003054627 0.014313634 -0.11795233
000030 41 67 18 bc f7 49 f0 3b b5 4b 54 3d a9 ba 08 3e
       -0.009301961 0.007333036 0.051830012 0.13352455
000040 f5 bb c5 bc c7 0a 09 3e 4a 18 08 bc 4a e3 03 3d
       -0.024137476 0.13383017 -0.008306572 0.03219918
000050 3c e3 81 3c 40 1e 76 3c 3c de 83 be c0 84 4a bc
       0.015855424 0.015021861 -0.2575549 -0.012360752
000060 99 ac 0a ba 63 f3 75 3c f0 fa 80 bc 62 c5 9d bd
       -0.0005290001 0.015011641 -0.015744656 -0.077036634
000070 19 5a b1 bb 53 26 de 3c 8d 2c d3 3d 73 47 50 be
       -0.005412352 0.027117884 0.10311232 -0.20339756
000080 7b 77 1a 3c f1 ab 57 3c c6 5a 1c 38 dd 73 e0 3c
       0.0094279 0.013163553 3.7277838e-05 0.027398998
000090 89 14 84 3e 3a 31 70 3b 3d ef c9 bc a7 05 a2 3b
       0.25796917 0.0036650435 -0.02465021 0.0049445215
0000a0 a5 1a 8b 3d 01 b6 76 3c d5 aa 4e 3e f3 2c cf bd
       0.067921914 0.015058042 0.20182355 -0.10115995
0000b0 4e ec 56 bc 7d 6c 28 3e 3a ab cb 3b 15 08 bf bb
       -0.013117863 0.16447635 0.00621548 -0.005829821
0000c0 f0 ae ce 3c 7b b8 00 3b 93 52 85 bd b9 24 63 be
       0.025229901 0.001964121 -0.065098904 -0.22181977
0000d0 f2 0e 24 3c 1a c1 54 be 3d 4c f3 3c 7e ef 02 be
       0.010013329 -0.20776787 0.02969944 -0.12786672
0000e0 34 0a 37 bd f2 8f a1 3d ff de 6b 3d 30 04 84 3b
       -0.044687465 0.078887835 0.057585713 0.0040288195
0000f0 2d ab 8d 3d fb c2 4a 3d 45 2f 15 bb 36 75 ff bc
       0.06917415 0.049502354 -0.002276377 -0.03118382
000100 15 45 05 3d aa 64 96 bc 6e 23 7a ba 05 73 bb bc
       0.032536585 -0.018358547 -0.00095420226 -0.022881994
000110 af ee 33 3c 20 f2 eb 3b 9c de 1c bb 82 6b 12 bd
       0.0109822 0.0072004944 -0.0023936396 -0.03574706
000120 f8 29 37 3c ae 92 c9 3d 3b fd bc bc be 8e b3 3c
       0.01117944 0.0984243 -0.023069968 0.02191865
000130 f2 8c 15 bd 82 17 13 bd ab c1 98 bb 11 d3 b2 bc
       -0.03651137 -0.03591109 -0.004661759 -0.02182916
000140 b2 b0 a3 bd 06 37 7b bd 91 7f 72 be 65 16 2b bd
       -0.07992686 -0.06133177 -0.23681475 -0.041769404
000150 7f 70 41 bc c5 0f 2c bc 08 6c fc 3c 45 78 0e 3e
       -0.011806606 -0.010501807 0.030813232 0.13913067
000160 f6 b3 b6 bd dc 6e e7 bd 68 9c 26 be bb d1 12 3e
       -0.089210436 -0.113004416 -0.16270602 0.14337818
000170 ac ed d6 3c 96 4a 11 be 86 2c f4 bd 78 30 e7 bc
       0.026236378 -0.14188609 -0.11922555 -0.028221354
000180 1c e0 05 3e 1b 32 0b bd f0 43 04 bb 9e ac c2 3c
       0.13073772 -0.03398333 -0.0020182095 0.02376395
000190 ec 4c bb bd b8 1c 03 be 75 72 01 3d 56 16 ad bb
       -0.09145531 -0.12803924 0.031603295 -0.0052822037
0001a0 93 9a 9d bd fd 06 46 bd fb 58 79 bc bf ff cf bd
       -0.07695498 -0.04834651 -0.0152189685 -0.101562016
0001b0 eb 50 82 bd 70 a3 d1 3c b1 88 12 3d 08 d0 ec 3d
       -0.0636309 0.025590628 0.03577489 0.11563116
0001c0 c9 b9 56 3d ba e8 ae 3b 40 01 75 bc 8c 90 1d bd
       0.052423272 0.0053378018 -0.014953911 -0.03846793
0001d0 56 9b d7 3c 81 e3 cb 3c 41 98 99 bc 4b f4 f9 bd
       0.026319187 0.024888756 -0.018749358 -0.12204798
0001e0 d6 a3 04 bd f0 18 e9 bd 46 96 39 3c 9d 4f f7 bc
       -0.03238281 -0.113817096 0.011327332 -0.03018933
0001f0 c6 f7 51 bc a7 c2 3f bd fd 75 ea bc c8 42 14 3e
       -0.012815421 -0.046816494 -0.028620714 0.144786

network.0.weight f4 [16, 5, 3, 3]
000000 65 40 e3 be b2 54 06 3f b9 7c 68 3e cd 5e 56 3b
       -0.44385067 0.52472985 0.22703828 0.0032710314
000010 13 f9 be 3e db ea cb bb 29 cc 6b 3d ea 15 01 bf
       0.37299404 -0.0062230653 0.05756775 -0.50424063
000020 72 ab 44 3f 92 02 72 3f 09 ee c9 bf 31 27 42 3f
       0.76824105 0.9453517 -1.5775768 0.7584105
000030 d3 3d 37 3c b6 c8 6b bf eb 55 79 3f 64 6f 7b 3f
       0.011184174 -0.92103136 0.97396725 0.98216844
000040 e5 51 25 3e 4f 46 06 3f 3c 9c db 3e d1 71 de 3f
       0.16144522 0.5245103 0.42892635 1.7378484
000050 7d 1f 1e 3d a1 3e 92 3f 46 a3 e2 3f 60 86 80 3e
       0.03860425 1.1425363 1.7706077 0.2510252
000060 58 68 d1 3e ae cf 02 3f 72 d4 79 3d 10 0d b6 3c
       0.4089992 0.51098144 0.06099362 0.022223026
000070 e4 ee 4e bd 6f b7 f9 3d 22 08 4b bc ff b5 ba bf
       -0.050520793 0.1219319 -0.012392076 -1.4586791
000080 33 ff 02 be 55 23 86 3d 4d 2d bc bd 40 fc 15 3e
       -0.12792663 0.06549708 -0.09188328 0.14647007
000090 e2 e0 49 3e 58 82 65 be 9c b0 72 bd e1 a4 9f 3d
       0.19714692 -0.22413003 -0.05925046 0.0779512
0000a0 54 7f 93 3c 25 5f a0 bd 44 e1 34 3d b0 4e 3f be
       0.01800505 -0.078306474 0.044160143 -0.1868236
0000b0 b6 99 79 bd 9a 9f 36 3e 72 4b d9 3e 8d 4f 38 3f
       -0.060937606 0.1783432 0.42440373 0.71996385
0000c0 08 d3 09 bd f6 a6 98 40 9e 7c 58 3e 46 25 e5 3e
       -0.03364852 4.770381 0.21141288 0.44755
0000d0 cf 15 9d 3e a6 10 a8 3e 64 84 8d bd d3 cb e2 bf
       0.306807 0.32825202 -0.06910017 -1.7718452
0000e0 11 74 a1 bd f6 81 a2 bf d4 80 db 3d 5b e4 8f bf
       -0.07883466 -1.2695911 0.107179314 -1.1241564
0000f0 51 74 c4 be e7 f3 c3 bf ea b3 3f bd 3f d4 ca bc
       -0.38369992 -1.5308808 -0.04680244 -0.02475941
000100 0e 96 37 3f bf 7c 23 3e a5 0a f4 3e 6d 52 49 40
       0.7171334 0.15965556 0.4766437 3.1456559
000110 4c fe b1 3e af 25 b6 3d 2f f3 08 3f 43 55 8e 3d
       0.34764326 0.08893906 0.5349607 0.06949856
000120 bf dd 02 3e b4 a7 02 3b 87 c1 0c bd 87 11 94 3d
       0.12779902 0.0019936385 -0.03436425 0.072299056
000130 a3 8e 17 bf 5e dd 0c 3e e4 d2 94 bd 00 c9 02 be
       -0.5920202 0.1375632 -0.07266787 -0.12771988
000140 8e e2 81 3d c6 12 46 be d9 c2 33 bf 81 14 d4 be
       0.0634204 -0.19343099 -0.7021919 -0.41421893
000150 a7 32 24 bf 25 23 10 c1 6f 11 4d bf f4 84 e1 be
       -0.6413979 -9.00858 -0.80104727 -0.44046748
000160 d0 bc 2a bf 57 1a f6 be 28 bc 13 bf d1 62 45 3d
       -0.66694355 -0.4806697 -0.5770898 0.04818994
000170 4b 45 de 3e 30 68 28 3e 20 5f 82 bf d7 ab 10 40
       0.4341224 0.16445994 -1.018528 2.2604883
000180 0b db d3 be 51 01 d8 3e 5a 9a 68 3d db aa 85 3e
       -0.41378054 0.42188504 0.056787826 0.26106915
000190 9d 8f d5 3e f6 6e d5 3e 3f a1 f0 3e 16 3d b0 3f
       0.4171113 0.4168622 0.4699802 1.3768642
0001a0 d2 84 39 be 03 06 e1 3e 16 2c 47 3e f4 33 71 3b
       -0.18117073 0.439499 0.19450411 0.0036804648
0001b0 e4 a3 c4 be 8d 3a 5c be 43 75 13 bf ad fa b7 be
       -0.3840629 -0.2150671 -0.576008 -0.35933438
0001c0 92 63 25 bf 03 f0 e1 3f 6c a2 e4 bd cb a4 0d be
       -0.6460506 1.7651371 -0.11163792 -0.13832395
0001d0 17 74 c4 be f3 ba ce bd aa 84 88 3d 86 d1 33 bd
       -0.3836982 -0.100942515 0.06665929 -0.04390099
0001e0 94 e6 6a 3d 9e c9 6b bf 61 78 bd 3c ae 3e 48 bc
       0.057348803 -0.9210452 0.02312869 -0.012221975
0001f0 45 64 ee bd af 09 2f bd 83 5b 88 3d e2 6c c8 be
       -0.11640219 -0.042733844 0.066580795 -0.3914557
000200 db 56 5d bd 97 94 03 bf 0c 0b ad bf ba b2 ce bf
       -0.05403791 -0.51398605 -1.3518996 -1.6148293
000210 29 4d 2c 3e 84 60 ac be 2e 98 9c be c8 bd 13 3e
       0.1682631 -0.33667386 -0.30584854 0.14427865
000220 00 ba 1c 3e 90 fc f3 be e2 51 82 be 13 d0 56 be
       0.15305328 -0.47653627 -0.25453097 -0.20977812
000230 00 ce c7 be 57 4b 16 3c 75 da 99 bd ba 2e 78 be
       -0.39024353 0.009173236 -0.075123705 -0.24236575
000240 1f 77 29 be 81 30 71 be 9a 2b 65 3d ec d0 70 be
       -0.16549347 -0.23553659 0.055949785 -0.23517197
000250 51 17 94 bb bf ca 06 be 08 33 49 3e bf 49 bb be
       -0.004519381 -0.13163279 0.19648373 -0.365797
000260 07 39 22 3e 6b ab 1b be cc 29 6a be dc 76 21 be
       0.15842067 -0.1520211 -0.22867507 -0.15767998
000270 6e 90 da 3d 1f 1b d6 3e 31 8c b9 be f6 36 be 3c
       0.10672079 0.41817567 -0.3623977 0.023219567
000280 58 59 b3 bc 71 4c 03 3e 72 be 10 3e a3 7e fd bd
       -0.021893188 0.12822129 0.14135149 -0.1237767
000290 84 86 31 bd 0e 8e 73 3d e2 37 2f 3d f4 2f a7 3d
       -0.043341175 0.059461646 0.042777903 0.08163443
0002a0 6d 4c bf 3d da ec cd 3d f0 95 f3 3c 1a a5 b5 be
       0.09340749 0.100549415 0.029734582 -0.35477525
0002b0 bb 9a 73 be 13 a2 17 be 49 c1 94 be 80 57 83 be
       -0.23789494 -0.1480792 -0.29053715 -0.25652695
0002c0 00 a9 46 be cc ab a8 be 03 13 47 be 5a e4 7a be
       -0.19400406 -0.3294357 -0.19440846 -0.24501172
0002d0 d8 b1 a1 3d 7d 67 6f 3c 2f d7 cc 3d c0 9c f1 3d
       0.07895249 0.014612076 0.100019805 0.11797476
0002e0 08 34 70 3e 2d 9c dc bd 30 e5 20 3f 3c 51 5e 3e
       0.23457348 -0.10771976 0.6284971 0.21710676
0002f0 4e 6f af 40 4e b9 c2 bd 32 78 42 3d 53 15 b6 bd
       5.482337 -0.09508 0.04747791 -0.08890786
000300 0a ae b1 bd 54 7c e6 3c e0 ba 84 bf e4 a2 8a bd
       -0.086757734 0.028135456 -1.036953 -0.0676935
000310 a6 a9 f7 be 2a 38 0a 3f 01 50 bd 3c fa e3 d3 bb
       -0.4837162 0.5399195 0.023109438 -0.006466386
000320 20 08 5a 3e f9 5e d2 3d 69 d1 38 bd 5a 54 e6 3e
       0.21292162 0.10272021 -0.045121584 0.4498623
000330 e3 0c 46 bd 7a 02 8a 3e e7 d8 49 40 f2 a5 55 3d
       -0.048352133 0.26955014 3.1538637 0.05216021
000340 59 f9 0d bb 3c ec d7 bc 1b 88 04 3e 94 46 11 3f
       -0.0021663515 -0.026357763 0.12942545 0.5674832
000350 b6 54 f5 3d f9 25 25 3d 1d 46 e5 bd 80 1b 68 bd
       0.11979048 0.040319417 -0.11195014 -0.05666685
000360 8b 4a b7 be 67 2c 72 be ca 73 ee be 79 99 68 be
       -0.3579906 -0.2364975 -0.46572715 -0.22714795
000370 d5 fa bb be 66 89 11 bf 54 ca de be 47 50 1e bf
       -0.36714807 -0.5685028 -0.4351374 -0.61841244
000380 36 1b ec c0 75 29 44 3e 41 8c 13 3e 34 81 18 c1
       -7.3783216 0.1915644 0.14408971 -9.531544
000390 aa da 27 be 4a 20 81 be 36 92 bd 3e 62 aa b6 3d
       -0.16392007 -0.25219947 0.37025613 0.08919217
0003a0 37 66 20 be bc fa a1 be d6 10 3b be 2e 15 d2 be
       -0.15663992 -0.31636608 -0.18268141 -0.41031784
0003b0 8b b1 d9 3e bf 18 0b bf 46 c3 ac be 89 50 0e 3e
       0.42518267 -0.54334635 -0.33742732 0.13897909
0003c0 32 0a 52 be 1f d8 b9 bd 1d 14 59 3e 81 7c a9 3e
       -0.20511702 -0.09074425 0.21199079 0.331028
0003d0 1a 8d 1e 3e 92 29 41 3f 3f bd a1 3e 91 15 30 3d
       0.15483513 0.75454056 0.31589696 0.042989317
0003e0 c1 e5 52 be e1 24 c4 3d d2 5c 87 3d 59 18 fb 3d
       -0.20595457 0.095773466 0.06609501 0.12260503
0003f0 ea e0 7b bd 7b 71 6f 3b a4 52 bb 3c de a5 a1 3b
       -0.06149379 0.0036536145 0.022866555 0.004933103

network.0.bias f4 [16]
000000 45 c4 fd bf d5 db 19 bf 2b 79 8c 3e 97 43 71 be
       -1.9825522 -0.6010106 0.27436194 -0.2356094
000010 e9 fb a8 be 29 c7 cc be 99 f9 a5 be 16 70 cb 3b
       -0.33004692 -0.39995697 -0.3241699 0.00620843
000020 84 4d df be c6 1e 10 bf 8f 75 44 be ed 31 69 3f
       -0.43613827 -0.56296957 -0.1918547 0.91091806
000030 8b d8 15 be fe 75 29 bf 9b ca 06 40 34 f9 9e be
       -0.14633386 -0.66195667 2.106116 -0.31049502

network.2.weight f4 [16, 16, 3, 3]
000000 20 e9 08 bc 1a 43 98 be 5d 44 d4 3c e8 14 1c bf
       -0.008356363 -0.29738694 0.025911504 -0.609694
000010 09 1d 5e be 54 f2 b0 bd b1 11 ec 39 d4 dc a9 bc
       -0.21690764 -0.086399704 0.0004502661 -0.020735182
000020 91 9d e6 ba ae b9 ee be 00 8e 98 bf 17 a3 f2 3f
       -0.0017594566 -0.46626037 -1.1918335 1.8956021
000030 5a c3 0e 3f 39 53 79 bf 1b 17 6b 3f fb 52 08 40
       0.5576683 -0.9739261 0.9183213 2.1300647
000040 92 ad 3c 40 43 e8 98 bf 1d 3b 4c be 2f 01 96 bf
       2.948094 -1.1945881 -0.19944425 -1.1719111
000050 6d e8 c1 be 99 d7 0b c0 fd 7c b0 3d 37 0e 9f 3f
       -0.3787264 -2.185034 0.086175896 1.2426213
000060 13 3a 91 3e e0 88 d1 3f 5b ca 68 3f 77 3c fd 3d
       0.2836462 1.6369896 0.9093377 0.123650484
000070 65 2b 37 3e e8 d8 4b bd cc a7 be bc bc ee a9 3c
       0.17887647 -0.049767405 -0.023273371 0.02074372
000080 6f 67 18 be b4 53 f7 3d 98 60 86 3e ce b8 eb 3d
       -0.14883207 0.12076512 0.2624557 0.11509858
000090 2a 08 ca be 1b af e3 bf 4f 68 02 bf 01 55 d7 3f
       -0.39459354 -1.7787813 -0.5094041 1.6822816
0000a0 e9 63 69 bf be fc 70 3f df 9f c0 3f e8 4b 9f 3f
       -0.91168076 0.94135654 1.5048789 1.244504
0000b0 23 83 92 3e f2 b0 cb be 7b c7 a6 3e 89 d2 2e 3e
       0.28615674 -0.39783436 0.32574067 0.170725
0000c0 d7 1b 07 3f b2 1d 96 3f 7e 95 86 bf d7 68 fb be
       0.52776855 1.1727812 -1.0514371 -0.49103424
0000d0 21 dc e1 bc ef f0 43 be da 91 6d bf af 35 3f bf
       -0.027570786 -0.19134878 -0.92800677 -0.7469129
0000e0 7e 00 3a be f3 f1 03 3f 7b a0 44 3f a0 0b ce 3d
       -0.1816425 0.5154106 0.76807374 0.10060811
0000f0 82 6c 9c 3f 4f ce aa 3f 50 57 e2 be ac 90 d8 be
       1.2220614 1.334421 -0.4420724 -0.42297876
000100 fe 0e 81 3f 61 60 88 bf 80 88 22 40 23 0c 5a 40
       1.00827 -1.0654413 2.5395813 3.4069908
000110 41 07 83 bf 6f 88 23 3f d4 8e 47 c0 c2 4d 9d 3f
       -1.0236589 0.63880056 -3.1180925 1.2289355
000120 cf 79 9a be 7d 2a 86 be 64 27 49 3e 8b 52 4b bd
       -0.30171058 -0.2620429 0.19643933 -0.049639266
000130 df d5 43 3e d3 94 22 be 65 fb 10 bd d3 f4 95 3e
       0.19124554 -0.15877084 -0.035396 0.2928835
000140 21 c5 8f 3e cd 98 99 be c0 5d d8 be c5 2d 96 be
       0.28080085 -0.2999939 -0.42259026 -0.29331794
000150 a3 f3 1d be fd 00 74 be 52 cb 89 3d 9a 24 12 3f
       -0.15424971 -0.23828502 0.067282334 0.570871
000160 dd 79 1f be 1b 3c 90 3c 3a 90 a4 3e 83 6c 15 bf
       -0.15573831 0.017606786 0.32141286 -0.583687
000170 4f 92 85 be fc 2f b1 3f 71 e2 4e bf 9d 29 4c bf
       -0.26088187 1.3842769 -0.8081427 -0.79750997
000180 5f e9 99 be 59 57 9e bf 8d 4a 56 be 5c 62 9a bf
       -0.3006086 -1.2370406 -0.20926876 -1.2061267
000190 82 73 aa be df 34 98 bf d9 1f 0d c0 d7 98 41 3f
       -0.3329125 -1.1891135 -2.2050688 0.7562384
0001a0 c6 6a d5 3e a7 d1 eb 3e 69 8c e7 3e fd 70 77 3f
       0.41683024 0.4605839 0.45224312 0.9665678
0001b0 36 67 b0 be a4 7d 3c bf 30 60 07 bf bb 70 8c be
       -0.34453744 -0.7362921 -0.52881145 -0.27429757
0001c0 24 51 27 3e 79 2a b0 3e 64 a2 a2 3e 0a ec f5 3e
       0.16339546 0.34407404 0.3176452 0.48031646
0001d0 62 4d 01 3e ad f6 a0 3d 0a 5c e6 be 3d 88 6e be
       0.12627175 0.0785955 -0.44992095 -0.23294158
0001e0 cc cc 48 bf 07 d3 ef 3e 26 94 14 40 5a 79 f6 3f
       -0.78437495 0.4684069 2.3215423 1.9255784
0001f0 b4 33 b9 3f d3 6e 96 3f 9e 82 74 be d2 b5 91 bd
       1.4468904 1.1752571 -0.23877952 -0.071147576
000200 1c 86 0c 3e b7 bc 61 bf 2f 7c 0f 3e a5 85 ab 3e
       0.13723034 -0.8817858 0.14012216 0.335004
000210 57 2f 1c 3f 00 5e af 3e bd 88 e3 3e 71 40 18 3f
       0.61009735 0.34251404 0.4444026 0.5947333
000220 dc 18 f6 3e 31 33 17 3f 34 b6 06 bf 8a eb b7 3d
       0.4806584 0.59062487 -0.5262177 0.089804724
000230 c7 78 e7 be e6 2a bf bd 49 94 2b be db 28 57 be
       -0.45209333 -0.09334354 -0.16755785 -0.21011679
000240 fd 01 dd 3e 22 e9 5f 3f c5 22 c7 3c 6c 48 5a 3e
       0.4316558 0.8746511 0.024308572 0.21316689
000250 44 78 c0 3c 9c cc 41 bd fb 0e 09 3e 67 ac 2c 3f
       0.023494847 -0.04731427 0.13384621 0.67450565
000260 a6 5a 87 bc 26 ff cf 3f 12 a7 56 bd 4e 07 9e be
       -0.016522717 1.624974 -0.052405424 -0.30864948
000270 32 05 b7 3e 7b f5 d7 3e 4e 72 d5 bf 7e b3 5b bd
       0.3574615 0.42179474 -1.6675508 -0.053637974
000280 8f 51 26 3f f2 44 0e c0 d8 22 7d bf 37 fc 47 3f
       0.649682 -2.222958 -0.9888129 0.78119224
000290 ec 95 6d 3f fc 43 fb 3d 41 08 98 3f c2 78 6c 3e
       0.9280689 0.12268826 1.1877519 0.2309294
0002a0 49 f3 fd 3e b7 47 b4 3d 87 8e 26 c0 22 01 37 bc
       0.49599674 0.08802741 -2.6024492 -0.011169704
0002b0 37 c2 e7 be 76 a9 d5 bd 68 87 19 3e 3a 6b e4 3d
       -0.45265362 -0.10432713 0.1499306 0.11153264
0002c0 9c f5 a2 be 4b 26 a1 3d 6a 75 3d be 6d fc 7b 3d
       -0.3182801 0.07868632 -0.18501821 0.06152003
0002d0 2c 92 85 be a1 d4 a8 3d 0e e4 38 bf da 52 eb bf
       -0.26088083 0.08243681 -0.72222984 -1.8384659
0002e0 a5 4d a8 bd e5 53 ac be 2b 60 7a 3f 07 aa 3b 40
       -0.082179345 -0.33657756 0.9780299 2.9322526
0002f0 e7 32 82 3f f5 8d 91 be aa 12 89 be 19 49 12 3f
       1.0171784 -0.28428617 -0.26772052 0.5714279
000300 f9 5c bd bf 8b 33 80 bf 05 86 26 3f a2 d8 e5 3e
       -1.4793998 -1.001573 0.6504825 0.4489184
000310 3d 6f 1a bf 80 51 2c bf 6c 31 31 3f b3 3a 38 3e
       -0.60325986 -0.6731186 0.69216037 0.17991142
000320 04 c4 09 bd f9 c5 1c 3f 64 51 39 be 4e bf 1a 3c
       -0.0336342 0.6123958 -0.18097454 0.009445025
000330 34 4a 82 bf c4 c4 03 3f 7f 27 fb 3e 86 d9 d5 3f
       -1.0178895 0.51472116 0.4905357 1.6707008
000340 b7 46 4c be 68 66 4f 3e 9e 6e d5 3f 09 1f 80 be
       -0.1994885 0.20253909 1.6674383 -0.25023678
000350 c3 af c0 bf 98 5c 17 3f 54 32 af 3f c6 d6 0a bf
       -1.5053638 0.5912566 1.3687234 -0.5423397
000360 e7 43 05 bf 0f da 58 3e 43 0d 38 3e f2 a5 4e 3b
       -0.52056736 0.21176933 0.17973809 0.0031532017
000370 42 90 70 bc 73 58 9d be 4a 72 bf be 0f 3c 08 be
       -0.014682831 -0.30731544 -0.37391883 -0.1330416
000380 3f f5 33 be 46 96 81 be 03 0a eb 3e 3f 0f fa 3e
       -0.17574023 -0.25309962 0.45906076 0.48839757
000390 fd bc 89 be 6f 2b 4f 3e dc 15 7f be 81 2a 2f be
       -0.26902 0.20231412 -0.24910682 -0.17106058
0003a0 ae cb 84 3e 87 f8 11 be 57 1f 6c bd 3d 75 82 3f
       0.25936645 -0.14254962 -0.057647076 1.0192028
0003b0 0a e9 2a 3f 28 2a c9 3e 00 9f ad 3d cf 25 3b bf
       0.6676184 0.39289975 0.084775925 -0.73104566
0003c0 35 2b a5 3f 9c 1b 8f bf 49 ac 52 3e d3 00 1a bf
       1.2903811 -1.1180301 0.20573534 -0.6015751
0003d0 10 96 4d bf 0d bb 18 3f e9 ed af 3e 84 fc 25 bf
       -0.803071 0.59660417 0.343612 -0.64838433
0003e0 ad f1 06 3f 62 7c 09 3e 2f c5 9a bf e4 0b 9f bf
       0.5271252 0.13426355 -1.2091426 -1.2425504
0003f0 de 51 4e be bc 9f b9 3e 38 c9 db 3d 80 f7 b8 be
       -0.20148417 0.3625468 0.10731739 -0.36126328

network.2.bias f4 [16]
000000 72 53 d3 bb c1 e7 a1 bf a4 e1 92 bd e7 64 85 be
       -0.0064491564 -1.2648851 -0.07171944 -0.26053545
000010 be 9c 64 bf a2 a9 97 bf 40 a6 c8 3d 7b 66 26 bd
       -0.8930167 -1.1848643 0.09797335 -0.040625077
000020 1e b7 8f bf b5 74 28 3d 19 e3 09 bf 4b cd 55 bf
       -1.1227758 0.041126925 -0.5386215 -0.8351638
000030 07 46 70 bd 27 8c 5d bf 4f cc b4 bc ac d0 61 bf
       -0.058660533 -0.8654198 -0.022070078 -0.88209033

network.4.weight f4 [16, 16, 2, 2]
000000 b3 0c 6a be 12 27 0d 3d 2e 11 e7 3e 5a d0 bf bf
       -0.22856407 0.03446109 0.45130295 -1.4985459
000010 62 80 48 3f fc 8d 8b 3e bb 6e 9b 3e 8a ae 1c c0
       0.78320897 0.27256763 0.30357918 -2.448153
000020 8e 31 4a bf 40 6a 17 3f 02 01 71 3e b6 72 af 3e
       -0.78981864 0.591465 0.2353554 0.34267205
000030 db 20 5d 3f 1c 9e 32 37 04 e6 0e 3d 7c 48 f1 3e
       0.8637826 1.06464395e-05 0.03488733 0.47125614
000040 33 9e 64 bf 86 8c 25 3f a7 21 bb bd b6 c6 03 bd
       -0.8930389 0.64667547 -0.09137278 -0.032171927
000050 38 64 da 3d 61 fb 0e 3f 04 0d 18 bf 56 35 2b bf
       0.106636465 0.55852324 -0.5939486 -0.6687826
000060 17 fe f2 3e 93 4c e7 3d 22 e1 48 3f ae a3 6c 3e
       0.4745948 0.11293902 0.78468525 0.23109314
000070 f8 e8 b2 3e 81 f9 64 bf fe 83 74 bf c1 5c b1 be
       0.34943366 -0.8944321 -0.95513904 -0.34641078
000080 5e 74 ec 3d 99 86 b9 bf 7d fb 3d 3e fe 12 9f 3e
       0.11545633 -1.4494201 0.18552966 0.31069177
000090 fd bc e8 bd 4e b9 01 bf f0 1a 3a 3f ef 4b 30 3f
       -0.11364172 -0.5067338 0.72697353 0.68865865
0000a0 57 08 0e bf 8c 21 52 3e 75 2a 98 bc d3 47 c6 3e
       -0.55481476 0.2052061 -0.018574933 0.38726673
0000b0 f9 6e 7c bf fd bc a7 3e 69 be df bf 65 42 08 bf
       -0.9860683 0.32761374 -1.7479984 -0.5322631
0000c0 23 06 fc be 6f 4b 82 bd bb 93 ca 3e f0 88 5e be
       -0.49223432 -0.06362044 0.39565834 -0.21731925
0000d0 8f e8 d4 bd 35 e2 c8 bf 87 67 ed 3e 88 81 be 3e
       -0.103959195 -1.5694033 0.46368048 0.372082
0000e0 f2 cb c2 bf 96 b8 93 3c 72 d5 13 bd bf 46 b3 3e
       -1.5218489 0.018032353 -0.03609223 0.35014912
0000f0 24 4a 6e bf a1 b7 21 bf 46 57 b6 bf e0 84 85 bf
       -0.9308188 -0.6317082 -1.4245384 -1.0431175
000100 ec 50 51 bf e9 21 76 bd ed 02 5a bf 3b 95 1d be
       -0.817641 -0.060090933 -0.85160714 -0.15388958
000110 12 6c bc bc c2 3d 24 bf b8 e4 b8 bd 7a b6 9f 3e
       -0.02300075 -0.64156735 -0.09028 0.31193906
000120 93 36 87 bc 7e 45 94 be fb b9 96 bd ab a3 8c bf
       -0.016505515 -0.28959268 -0.07359692 -1.0987448
000130 16 07 b6 bf dd 55 88 bf cf b6 90 be b2 ab 48 be
       -1.4220912 -1.0651203 -0.28264472 -0.19596747
000140 d7 78 39 3e b8 89 36 3f fc 09 60 bd 2b 31 52 3e
       0.18112503 0.7130389 -0.05469702 0.20526569
000150 98 1f 6f be 23 01 4e bd ae b7 9f bf 21 ac df be
       -0.23351896 -0.050294053 -1.247793 -0.4368601
000160 52 75 a4 bf 2b 49 0d be 7b fa 1d 3e ca 49 31 be
       -1.2848303 -0.13797443 0.15427582 -0.17313305
000170 a0 80 26 3f d7 a7 01 be 84 cf 28 bf 4c cc 1f 3f
       0.65040016 -0.12661682 -0.65941644 0.6242111
000180 18 20 89 be a6 57 48 3c 84 bd 2b 3c 58 9a 62 bf
       -0.26782298 0.012227928 0.010482196 -0.8851676
000190 61 82 25 be 0f 23 86 bf 07 8f 09 be 08 d9 f4 3e
       -0.16163017 -1.0479449 -0.13433467 0.47821832
0001a0 22 19 01 be 9b b4 02 bf 0f 8a 9d 3e 93 86 76 be
       -0.12607244 -0.5105683 0.30769393 -0.24074773
0001b0 7d 22 1a 3f be ad 32 be d1 ae 43 bf 71 cc e0 bf
       0.60208875 -0.1744909 -0.76438624 -1.756239
0001c0 75 20 e1 3d 2c cb 84 bf 39 d0 ec be c8 66 a0 be
       0.10992519 -1.0374503 -0.4625261 -0.31328416
0001d0 99 f7 7a bf 37 75 b9 3f 24 7d 10 3f 3a eb 84 3f
       -0.98034054 1.4488896 0.5644095 1.0384285
0001e0 8e 67 07 bf 71 39 9b 3e ff c2 83 bf 1b 4b 11 3f
       -0.52892387 0.30317262 -1.0293883 0.56755227
0001f0 5f f3 80 3e 88 2e 09 3d 41 d2 30 be 02 09 1b 3d
       0.25185677 0.03349164 -0.17267706 0.037850387
000200 1b 3d 21 3d 4e a0 bc 3e d9 bc 19 bf bf c8 44 be
       0.039364915 0.36841053 -0.60053784 -0.19217204
000210 6f 32 91 bf b7 b0 6d bf c2 25 bc be e4 a4 8e bd
       -1.1343516 -0.9284777 -0.36747557 -0.06965044
000220 cb 7f 49 bf 45 85 9b be 5d 35 18 bf ee e2 14 3f
       -0.7871062 -0.30375114 -0.59456426 0.5815877
000230 14 46 f8 3e 0d 02 28 be 19 b0 ff 3e 80 31 09 3d
       0.48490965 -0.16407032 0.4993904 0.033494473
000240 9d e5 43 be 81 84 c0 3e f4 a6 a8 bd 63 04 7a 3f
       -0.1913056 0.37601092 -0.08234969 0.97662944
000250 2d 87 cb be 89 75 36 c0 1d b1 f6 bd af 3e d0 bf
       -0.39751568 -2.8509238 -0.120455004 -1.626913
000260 a9 9c d3 bd e0 17 ef be 30 61 57 be 09 45 d1 3e
       -0.10332615 -0.46697903 -0.21033168 0.40872982
000270 b9 ef f5 3e cb 10 cf 3d e5 4e 90 3f 6d 5f b4 3e
       0.48034456 0.10110625 1.1274077 0.35229054
000280 40 dc 8b be 62 58 72 bf 1a 66 af bd 63 b5 84 bf
       -0.27316475 -0.9466611 -0.08564396 -1.0367855
000290 6e 99 be bf aa 18 91 bf a6 5b 0b 3f 52 b1 95 bf
       -1.4890573 -1.1335652 0.5443672 -1.1694739
0002a0 8b a6 46 bf 93 4e 16 be 85 a9 df 3a 7d 7d 50 3d
       -0.77597874 -0.14678411 0.001706407 0.050900925
0002b0 8e 3a f7 bd 66 03 ac 3e dc a0 36 3f 76 66 f3 bf
       -0.12071715 0.33596343 0.713392 -1.9015644
0002c0 a5 5d 97 bf 3a 6a 20 3f 98 02 f6 3b 95 39 64 3f
       -1.1825453 0.6266209 0.0075076334 0.89150363
0002d0 62 35 ac be a3 4e 54 3f 91 64 0b be e7 66 e4 3e
       -0.33634478 0.8293249 -0.13612582 0.44609758
0002e0 25 a7 b3 3e 69 05 8f bf 8b 99 93 3e 5d 5f 72 3f
       0.3508846 -1.1173526 0.2882808 0.9467676
0002f0 f5 aa 1a 3f d4 bf a4 bf f8 3e bc 3e a1 0b 5d bf
       0.6041711 -1.2871041 0.3676679 -0.8634587
000300 d3 b2 fe be 9e ea 57 bf df d1 b2 bd 79 78 12 3f
       -0.49745807 -0.8434237 -0.08731436 0.57215077
000310 61 1a d3 be 9f 5a 16 3e cc 1e 1b 3f ae 4b 08 3f
       -0.41231063 0.14683007 0.6059387 0.5324048
000320 e6 8e 83 bf f8 82 cb 3e cf 36 a0 3d 78 53 36 3d
       -1.0277984 0.3974836 0.07822954 0.044513196
000330 52 e0 bb 3c 24 47 87 3e a9 62 c0 3e fd 54 8e ba
       0.022934113 0.26421463 0.37575272 -0.0010859069
000340 3a 3f 97 3f b0 b3 c8 bd 8a bf a9 3e d7 60 50 bf
       1.181617 -0.09799898 0.33153945 -0.81397766
000350 e8 4b ea 3e 98 85 a1 3f d4 49 9f bd 8d dc bd 3e
       0.45761037 1.2618895 -0.077777535 0.3708233
000360 45 fc 4d bc b0 5b 39 3f cb d9 02 3d de 71 10 3f
       -0.012572353 0.7240553 0.031945985 0.5642375
000370 0d 59 a7 3e 29 a7 73 3f 0a 05 8e 3f dd 08 3a 3e
       0.32685128 0.9517694 1.1095288 0.18167444
000380 0a 50 a2 bf fa 69 7d bf fc c3 cd bd 61 22 66 3f
       -1.2680676 -0.9898983 -0.10047147 0.8989621
000390 7f 33 40 3e 32 b2 c1 bf 29 d3 a5 be 7b 01 a5 bf
       0.18769644 -1.5132506 -0.32387665 -1.2891077
0003a0 ee 48 09 3f a6 42 36 3e 45 4a de 3e a0 8e ba bd
       0.53626907 0.17798862 0.43416038 -0.09109235
0003b0 36 ef 12 be af 3e 01 be 11 5b 86 3d 73 bb 99 bf
       -0.14349064 -0.12621568 0.06560338 -1.201033
0003c0 f6 66 d1 3e 26 7c 8a 3e 8a ac e2 3e 36 4b 04 be
       0.40898865 0.27047843 0.44272262 -0.12919316
0003d0 d9 58 87 3f 05 66 fc be a1 37 db be 27 96 0b be
       1.0573989 -0.49296585 -0.4281588 -0.13631497
0003e0 99 ef 3d bf 0e c8 50 3e 95 e5 cb be e6 7d 15 3e
       -0.7419372 0.20388815 -0.39823595 0.14598808
0003f0 3e ed 52 3d a1 5b ca 3e e4 78 ef 3e 63 11 f4 bd
       0.051495783 0.39523032 0.4677192 -0.11917379

network.4.bias f4 [16]
000000 b1 15 2b bf 70 eb d9 bc 31 54 cf bf c7 16 4e bf
       -0.66829973 -0.026601523 -1.6197568 -0.80503505
000010 9c 30 c4 bc a3 05 90 bf de f5 83 bb 3b 68 42 bf
       -0.02394896 -1.125172 -0.0040271124 -0.75940293
000020 75 f7 4d bd fa 21 93 bd 9c 36 7b bd 7d bd 51 3d
       -0.05028482 -0.07184215 -0.061331376 0.0512061
000030 05 49 3c bd 52 81 3d be c9 f4 69 be bc b1 7f bc
       -0.045968074 -0.18506363 -0.22847284 -0.01560634

l1.weight f4 [16, 6]
000000 7b a6 38 be e4 05 4c be dd 29 9f be 3e 37 a1 be
       -0.18032257 -0.19924122 -0.31086627 -0.3148746
000010 ed 63 6d be 1f cc 37 3e df 25 08 be 94 16 9e bc
       -0.2318265 0.1794896 -0.13295697 -0.019297875
000020 ad 2e 05 3e ff 7f 80 3e b5 f8 80 bf ce 4c a8 3e
       0.13006087 0.25097653 -1.0075899 0.32871097
000030 d3 46 98 be 44 a2 39 bd 1b a2 b7 3d a4 0f 3b be
       -0.29741535 -0.045320764 0.08966466 -0.18267685
000040 d4 55 24 3e ab f2 a5 be dd 60 b9 bd fa 14 84 3d
       0.16048366 -0.32411703 -0.09051678 0.064493135
000050 1d 8e 44 bf 3e ac c0 be 7a c4 93 bf 31 dc 22 bf
       -0.7677935 -0.3763141 -1.1544335 -0.63617235
000060 37 b9 0c 3e 83 c8 e0 be 96 0e c3 bd f3 75 02 bf
       0.13742529 -0.43902978 -0.095242664 -0.50961226
000070 bc 6f 64 3f 29 9a c0 bd 93 5d da 3e 66 9a e7 be
       0.89232993 -0.09404404 0.42649516 -0.45234984
000080 57 ea 89 3e a8 ae c3 3e 95 ba 6a bf a1 a0 70 be
       0.269366 0.3821919 -0.9169095 -0.23498775
000090 47 28 ea be 5d b3 a8 be 09 1d 32 3e d6 f0 c2 bd
       -0.45733854 -0.32949343 0.17393889 -0.09518592
0000a0 28 99 52 be 15 fd c9 bf fa e5 ba 3b 2d 43 a0 bc
       -0.20566237 -1.578036 0.005703685 -0.019563282
0000b0 b9 ad e3 3e 03 8c 2f 3f b8 b7 2e 40 11 79 80 be
       0.44468477 0.68573016 2.7299633 -0.25092366
0000c0 61 32 ee be 04 24 0e 3e 5c 6a b7 be e1 f3 ad be
       -0.4652281 0.13880926 -0.35823333 -0.33975127
0000d0 80 e9 93 bd c9 9e e9 be 6e d3 c7 bd fe 5f 93 3d
       -0.07222271 -0.45628956 -0.09757124 0.071960434
0000e0 ba 1e 66 be 7c f8 e5 be 50 e2 08 bf 79 20 1e 3e
       -0.22472659 -0.4491614 -0.53470325 0.15442075
0000f0 92 7d a4 3d 00 29 f3 bd 69 91 a3 be 5b 96 25 bf
       0.08031763 -0.118730545 -0.31946877 -0.6468255
000100 a2 c1 f5 3d 45 73 cb be 01 2e 38 3e c6 cc 9b bf
       0.11999823 -0.3973638 0.17986299 -1.2171867
000110 28 6a 39 3f c3 26 5a 3e 5c df a2 bf f9 98 26 bf
       0.72427607 0.21303849 -1.2724414 -0.6507717
000120 73 7a f4 3e 36 ca d1 be b9 08 bd 3e bc 84 52 3e
       0.4774967 -0.40974587 0.36920717 0.20558447
000130 01 ae b9 bf cb ce aa 3d 5f cb c3 be 03 54 d8 3e
       -1.4506227 0.08340224 -0.38241097 0.42251596
000140 2c 6d 62 be 42 4c 08 be b1 1d 06 40 2d 0e 3f bf
       -0.22111958 -0.1331034 2.0955622 -0.74631006
000150 9d f5 64 be 87 99 01 bf 51 14 1e 3f c8 e9 80 be
       -0.22359319 -0.5062489 0.6174975 -0.2517836
000160 af 7b a5 3e c4 14 c5 be f2 c9 bc be 59 5c 05 3e
       0.32320926 -0.38492405 -0.36872822 0.13023509
000170 d2 58 dd be 22 61 2e bf 30 6b 6a bd e2 52 b9 3e
       -0.43231827 -0.6811696 -0.05723113 0.36196047

l1.bias f4 [16]
000000 29 78 ac be 54 79 fa be 91 a1 bc be 08 a5 4d bf
       -0.33685425 -0.4892069 -0.36842015 -0.8032994
000010 c6 68 1a bf 71 ca 03 40 11 f3 91 bd 2a bf 8c bf
       -0.6031612 2.059231 -0.07126439 -1.0995839
000020 cf 6d a6 3e 21 b9 98 be b1 c4 18 bf ba 1a f4 bc
       0.32505652 -0.29828742 -0.5967513 -0.0297979
000030 5b cc 10 40 82 7e 28 c0 a7 15 fb be e3 12 71 3c
       2.2624729 -2.6327214 -0.49039957 0.014713976
